…
FETCHED num_vectors = [20000, 20000, 20000, 20000, 20000, 20000, 20000, 20000, 20000, 20000, 20000, 20000, 20000, 20000, 20000, 20000, 20000, 20000, 20000, 20000, 20000, 20000, 20000, 20000, 20000, 20000], max_ind_range = 20000.
Load processed = True
Reading pre-processed data=kaggleAdDisplayChallenge_processed
Sparse features= 26, Dense features= 13
Reading pre-processed data=kaggleAdDisplayChallenge_processed
Sparse features= 26, Dense features= 13
ATTEMPTING TO MOVE DLRM SUPERNET TO GPU cpu.
DLRMSuperNet(
  (emb_l): ModuleList(
    (0): EmbeddingDimSuperNet(
      (largest_embedding): EmbeddingDLRM(
        (embedding): Embedding(20000, 128)
      )
      (theta_parameters): ParameterList(  (0): Parameter containing: [torch.FloatTensor of size 5])
    )
    (1): EmbeddingDimSuperNet(
      (largest_embedding): EmbeddingDLRM(
        (embedding): Embedding(20000, 128)
      )
      (theta_parameters): ParameterList(  (0): Parameter containing: [torch.FloatTensor of size 5])
    )
    (2): EmbeddingDimSuperNet(
      (largest_embedding): EmbeddingDLRM(
        (embedding): Embedding(20000, 128)
      )
      (theta_parameters): ParameterList(  (0): Parameter containing: [torch.FloatTensor of size 5])
    )
    (3): EmbeddingDimSuperNet(
      (largest_embedding): EmbeddingDLRM(
        (embedding): Embedding(20000, 128)
      )
      (theta_parameters): ParameterList(  (0): Parameter containing: [torch.FloatTensor of size 5])
    )
    (4): EmbeddingDimSuperNet(
      (largest_embedding): EmbeddingDLRM(
        (embedding): Embedding(20000, 128)
      )
      (theta_parameters): ParameterList(  (0): Parameter containing: [torch.FloatTensor of size 5])
    )
    (5): EmbeddingDimSuperNet(
      (largest_embedding): EmbeddingDLRM(
        (embedding): Embedding(20000, 128)
      )
      (theta_parameters): ParameterList(  (0): Parameter containing: [torch.FloatTensor of size 5])
    )
    (6): EmbeddingDimSuperNet(
      (largest_embedding): EmbeddingDLRM(
        (embedding): Embedding(20000, 128)
      )
      (theta_parameters): ParameterList(  (0): Parameter containing: [torch.FloatTensor of size 5])
    )
    (7): EmbeddingDimSuperNet(
      (largest_embedding): EmbeddingDLRM(
        (embedding): Embedding(20000, 128)
      )
      (theta_parameters): ParameterList(  (0): Parameter containing: [torch.FloatTensor of size 5])
    )
    (8): EmbeddingDimSuperNet(
      (largest_embedding): EmbeddingDLRM(
        (embedding): Embedding(20000, 128)
      )
      (theta_parameters): ParameterList(  (0): Parameter containing: [torch.FloatTensor of size 5])
    )
    (9): EmbeddingDimSuperNet(
      (largest_embedding): EmbeddingDLRM(
        (embedding): Embedding(20000, 128)
      )
      (theta_parameters): ParameterList(  (0): Parameter containing: [torch.FloatTensor of size 5])
    )
    (10): EmbeddingDimSuperNet(
      (largest_embedding): EmbeddingDLRM(
        (embedding): Embedding(20000, 128)
      )
      (theta_parameters): ParameterList(  (0): Parameter containing: [torch.FloatTensor of size 5])
    )
    (11): EmbeddingDimSuperNet(
      (largest_embedding): EmbeddingDLRM(
        (embedding): Embedding(20000, 128)
      )
      (theta_parameters): ParameterList(  (0): Parameter containing: [torch.FloatTensor of size 5])
    )
    (12): EmbeddingDimSuperNet(
      (largest_embedding): EmbeddingDLRM(
        (embedding): Embedding(20000, 128)
      )
      (theta_parameters): ParameterList(  (0): Parameter containing: [torch.FloatTensor of size 5])
    )
    (13): EmbeddingDimSuperNet(
      (largest_embedding): EmbeddingDLRM(
        (embedding): Embedding(20000, 128)
      )
      (theta_parameters): ParameterList(  (0): Parameter containing: [torch.FloatTensor of size 5])
    )
    (14): EmbeddingDimSuperNet(
      (largest_embedding): EmbeddingDLRM(
        (embedding): Embedding(20000, 128)
      )
      (theta_parameters): ParameterList(  (0): Parameter containing: [torch.FloatTensor of size 5])
    )
    (15): EmbeddingDimSuperNet(
      (largest_embedding): EmbeddingDLRM(
        (embedding): Embedding(20000, 128)
      )
      (theta_parameters): ParameterList(  (0): Parameter containing: [torch.FloatTensor of size 5])
    )
    (16): EmbeddingDimSuperNet(
      (largest_embedding): EmbeddingDLRM(
        (embedding): Embedding(20000, 128)
      )
      (theta_parameters): ParameterList(  (0): Parameter containing: [torch.FloatTensor of size 5])
    )
    (17): EmbeddingDimSuperNet(
      (largest_embedding): EmbeddingDLRM(
        (embedding): Embedding(20000, 128)
      )
      (theta_parameters): ParameterList(  (0): Parameter containing: [torch.FloatTensor of size 5])
    )
    (18): EmbeddingDimSuperNet(
      (largest_embedding): EmbeddingDLRM(
        (embedding): Embedding(20000, 128)
      )
      (theta_parameters): ParameterList(  (0): Parameter containing: [torch.FloatTensor of size 5])
    )
    (19): EmbeddingDimSuperNet(
      (largest_embedding): EmbeddingDLRM(
        (embedding): Embedding(20000, 128)
      )
      (theta_parameters): ParameterList(  (0): Parameter containing: [torch.FloatTensor of size 5])
    )
    (20): EmbeddingDimSuperNet(
      (largest_embedding): EmbeddingDLRM(
        (embedding): Embedding(20000, 128)
      )
      (theta_parameters): ParameterList(  (0): Parameter containing: [torch.FloatTensor of size 5])
    )
    (21): EmbeddingDimSuperNet(
      (largest_embedding): EmbeddingDLRM(
        (embedding): Embedding(20000, 128)
      )
      (theta_parameters): ParameterList(  (0): Parameter containing: [torch.FloatTensor of size 5])
    )
    (22): EmbeddingDimSuperNet(
      (largest_embedding): EmbeddingDLRM(
        (embedding): Embedding(20000, 128)
      )
      (theta_parameters): ParameterList(  (0): Parameter containing: [torch.FloatTensor of size 5])
    )
    (23): EmbeddingDimSuperNet(
      (largest_embedding): EmbeddingDLRM(
        (embedding): Embedding(20000, 128)
      )
      (theta_parameters): ParameterList(  (0): Parameter containing: [torch.FloatTensor of size 5])
    )
    (24): EmbeddingDimSuperNet(
      (largest_embedding): EmbeddingDLRM(
        (embedding): Embedding(20000, 128)
      )
      (theta_parameters): ParameterList(  (0): Parameter containing: [torch.FloatTensor of size 5])
    )
    (25): EmbeddingDimSuperNet(
      (largest_embedding): EmbeddingDLRM(
        (embedding): Embedding(20000, 128)
      )
      (theta_parameters): ParameterList(  (0): Parameter containing: [torch.FloatTensor of size 5])
    )
  )
  (bot_l): Sequential(
    (0): Linear(in_features=13, out_features=1024, bias=True)
    (1): ReLU()
    (2): Linear(in_features=1024, out_features=1024, bias=True)
    (3): ReLU()
    (4): Linear(in_features=1024, out_features=1024, bias=True)
    (5): ReLU()
    (6): Linear(in_features=1024, out_features=128, bias=True)
    (7): ReLU()
  )
  (top_l): Sequential(
    (0): Linear(in_features=479, out_features=1024, bias=True)
    (1): ReLU()
    (2): Linear(in_features=1024, out_features=1024, bias=True)
    (3): ReLU()
    (4): Linear(in_features=1024, out_features=1024, bias=True)
    (5): ReLU()
    (6): Linear(in_features=1024, out_features=1, bias=True)
    (7): Sigmoid()
  )
  (theta_parameters): ParameterList(
      (0): Parameter containing: [torch.FloatTensor of size 5]
      (1): Parameter containing: [torch.FloatTensor of size 5]
      (2): Parameter containing: [torch.FloatTensor of size 5]
      (3): Parameter containing: [torch.FloatTensor of size 5]
      (4): Parameter containing: [torch.FloatTensor of size 5]
…
