…
    (15): EmbeddingBag(20000, 32, mode=sum)
    (16): EmbeddingBag(20000, 32, mode=sum)
    (17): EmbeddingBag(20000, 32, mode=sum)
    (18): EmbeddingBag(20000, 32, mode=sum)
    (19): EmbeddingBag(20000, 32, mode=sum)
    (20): EmbeddingBag(20000, 32, mode=sum)
    (21): EmbeddingBag(20000, 32, mode=sum)
    (22): EmbeddingBag(20000, 32, mode=sum)
    (23): EmbeddingBag(20000, 32, mode=sum)
    (24): EmbeddingBag(20000, 32, mode=sum)
    (25): EmbeddingBag(20000, 32, mode=sum)
  )
  (bot_l): SuperNetMLP(
    (fc_layers): ModuleList(
      (0): ModuleList(
        (0): ModuleList(
          (0): LinearDLRM(
            (linear_layer): Linear(in_features=13, out_features=128, bias=True)
          )
        )
        (1): ModuleList(
          (0): LinearDLRM(
            (linear_layer): Linear(in_features=13, out_features=256, bias=True)
          )
        )
        (2): ModuleList(
          (0): LinearDLRM(
            (linear_layer): Linear(in_features=13, out_features=512, bias=True)
          )
        )
        (3): ModuleList(
          (0): LinearDLRM(
            (linear_layer): Linear(in_features=13, out_features=1024, bias=True)
          )
        )
      )
      (1): ModuleList(
        (0): ModuleList(
          (0): LinearDLRM(
            (linear_layer): Linear(in_features=128, out_features=128, bias=True)
          )
          (1): LinearDLRM(
            (linear_layer): Linear(in_features=256, out_features=128, bias=True)
          )
          (2): LinearDLRM(
            (linear_layer): Linear(in_features=512, out_features=128, bias=True)
          )
          (3): LinearDLRM(
            (linear_layer): Linear(in_features=1024, out_features=128, bias=True)
          )
          (4): Identity()
        )
        (1): ModuleList(
          (0): LinearDLRM(
            (linear_layer): Linear(in_features=128, out_features=256, bias=True)
          )
          (1): LinearDLRM(
            (linear_layer): Linear(in_features=256, out_features=256, bias=True)
          )
          (2): LinearDLRM(
            (linear_layer): Linear(in_features=512, out_features=256, bias=True)
          )
          (3): LinearDLRM(
            (linear_layer): Linear(in_features=1024, out_features=256, bias=True)
          )
          (4): Identity()
        )
        (2): ModuleList(
          (0): LinearDLRM(
            (linear_layer): Linear(in_features=128, out_features=512, bias=True)
          )
          (1): LinearDLRM(
            (linear_layer): Linear(in_features=256, out_features=512, bias=True)
          )
          (2): LinearDLRM(
            (linear_layer): Linear(in_features=512, out_features=512, bias=True)
          )
          (3): LinearDLRM(
            (linear_layer): Linear(in_features=1024, out_features=512, bias=True)
          )
          (4): Identity()
        )
        (3): ModuleList(
          (0): LinearDLRM(
            (linear_layer): Linear(in_features=128, out_features=1024, bias=True)
          )
          (1): LinearDLRM(
            (linear_layer): Linear(in_features=256, out_features=1024, bias=True)
          )
          (2): LinearDLRM(
            (linear_layer): Linear(in_features=512, out_features=1024, bias=True)
          )
          (3): LinearDLRM(
            (linear_layer): Linear(in_features=1024, out_features=1024, bias=True)
          )
          (4): Identity()
        )
      )
      (2): ModuleList(
        (0): ModuleList(
          (0): LinearDLRM(
            (linear_layer): Linear(in_features=128, out_features=128, bias=True)
          )
          (1): LinearDLRM(
            (linear_layer): Linear(in_features=256, out_features=128, bias=True)
          )
          (2): LinearDLRM(
            (linear_layer): Linear(in_features=512, out_features=128, bias=True)
          )
          (3): LinearDLRM(
            (linear_layer): Linear(in_features=1024, out_features=128, bias=True)
          )
          (4): Identity()
        )
        (1): ModuleList(
          (0): LinearDLRM(
            (linear_layer): Linear(in_features=128, out_features=256, bias=True)
          )
          (1): LinearDLRM(
            (linear_layer): Linear(in_features=256, out_features=256, bias=True)
          )
          (2): LinearDLRM(
            (linear_layer): Linear(in_features=512, out_features=256, bias=True)
          )
          (3): LinearDLRM(
            (linear_layer): Linear(in_features=1024, out_features=256, bias=True)
          )
          (4): Identity()
        )
        (2): ModuleList(
          (0): LinearDLRM(
            (linear_layer): Linear(in_features=128, out_features=512, bias=True)
          )
          (1): LinearDLRM(
            (linear_layer): Linear(in_features=256, out_features=512, bias=True)
          )
          (2): LinearDLRM(
            (linear_layer): Linear(in_features=512, out_features=512, bias=True)
          )
          (3): LinearDLRM(
            (linear_layer): Linear(in_features=1024, out_features=512, bias=True)
          )
          (4): Identity()
        )
        (3): ModuleList(
          (0): LinearDLRM(
            (linear_layer): Linear(in_features=128, out_features=1024, bias=True)
          )
          (1): LinearDLRM(
            (linear_layer): Linear(in_features=256, out_features=1024, bias=True)
          )
          (2): LinearDLRM(
            (linear_layer): Linear(in_features=512, out_features=1024, bias=True)
          )
          (3): LinearDLRM(
            (linear_layer): Linear(in_features=1024, out_features=1024, bias=True)
          )
          (4): Identity()
        )
      )
      (3): ModuleList(
        (0): ModuleList(
          (0): LinearDLRM(
            (linear_layer): Linear(in_features=128, out_features=128, bias=True)
          )
          (1): LinearDLRM(
            (linear_layer): Linear(in_features=256, out_features=128, bias=True)
          )
          (2): LinearDLRM(
            (linear_layer): Linear(in_features=512, out_features=128, bias=True)
          )
          (3): LinearDLRM(
            (linear_layer): Linear(in_features=1024, out_features=128, bias=True)
          )
          (4): Identity()
        )
        (1): ModuleList(
          (0): LinearDLRM(
            (linear_layer): Linear(in_features=128, out_features=256, bias=True)
          )
          (1): LinearDLRM(
            (linear_layer): Linear(in_features=256, out_features=256, bias=True)
          )
          (2): LinearDLRM(
            (linear_layer): Linear(in_features=512, out_features=256, bias=True)
          )
          (3): LinearDLRM(
            (linear_layer): Linear(in_features=1024, out_features=256, bias=True)
          )
          (4): Identity()
        )
        (2): ModuleList(
          (0): LinearDLRM(
            (linear_layer): Linear(in_features=128, out_features=512, bias=True)
          )
          (1): LinearDLRM(
            (linear_layer): Linear(in_features=256, out_features=512, bias=True)
          )
          (2): LinearDLRM(
            (linear_layer): Linear(in_features=512, out_features=512, bias=True)
          )
          (3): LinearDLRM(
            (linear_layer): Linear(in_features=1024, out_features=512, bias=True)
          )
          (4): Identity()
        )
        (3): ModuleList(
          (0): LinearDLRM(
            (linear_layer): Linear(in_features=128, out_features=1024, bias=True)
          )
          (1): LinearDLRM(
            (linear_layer): Linear(in_features=256, out_features=1024, bias=True)
          )
          (2): LinearDLRM(
            (linear_layer): Linear(in_features=512, out_features=1024, bias=True)
          )
          (3): LinearDLRM(
            (linear_layer): Linear(in_features=1024, out_features=1024, bias=True)
          )
          (4): Identity()
        )
      )
      (4): ModuleList(
        (0): ModuleList(
          (0): LinearDLRM(
            (linear_layer): Linear(in_features=128, out_features=32, bias=True)
          )
          (1): LinearDLRM(
            (linear_layer): Linear(in_features=256, out_features=32, bias=True)
          )
          (2): LinearDLRM(
            (linear_layer): Linear(in_features=512, out_features=32, bias=True)
          )
          (3): LinearDLRM(
            (linear_layer): Linear(in_features=1024, out_features=32, bias=True)
          )
        )
      )
    )
    (bn_layers): ModuleList()
    (theta_parameters): ParameterList(
        (0): Parameter containing: [torch.FloatTensor of size 1]
        (1): Parameter containing: [torch.FloatTensor of size 1]
        (2): Parameter containing: [torch.FloatTensor of size 1]
        (3): Parameter containing: [torch.FloatTensor of size 1]
…
        (10): Parameter containing: [torch.FloatTensor of size 5]
        (11): Parameter containing: [torch.FloatTensor of size 5]
        (12): Parameter containing: [torch.FloatTensor of size 5]
        (13): Parameter containing: [torch.FloatTensor of size 5]
        (14): Parameter containing: [torch.FloatTensor of size 5]
        (15): Parameter containing: [torch.FloatTensor of size 5]
        (16): Parameter containing: [torch.FloatTensor of size 4]
    )
  )
  (top_l): SuperNetMLP(
    (fc_layers): ModuleList(
      (0): ModuleList(
        (0): ModuleList(
          (0): LinearDLRM(
            (linear_layer): Linear(in_features=383, out_features=128, bias=True)
          )
        )
        (1): ModuleList(
          (0): LinearDLRM(
            (linear_layer): Linear(in_features=383, out_features=256, bias=True)
          )
        )
        (2): ModuleList(
          (0): LinearDLRM(
            (linear_layer): Linear(in_features=383, out_features=512, bias=True)
          )
        )
        (3): ModuleList(
          (0): LinearDLRM(
            (linear_layer): Linear(in_features=383, out_features=1024, bias=True)
          )
        )
      )
      (1): ModuleList(
        (0): ModuleList(
          (0): LinearDLRM(
            (linear_layer): Linear(in_features=128, out_features=128, bias=True)
          )
          (1): LinearDLRM(
            (linear_layer): Linear(in_features=256, out_features=128, bias=True)
          )
          (2): LinearDLRM(
            (linear_layer): Linear(in_features=512, out_features=128, bias=True)
          )
          (3): LinearDLRM(
            (linear_layer): Linear(in_features=1024, out_features=128, bias=True)
          )
          (4): Identity()
        )
        (1): ModuleList(
          (0): LinearDLRM(
            (linear_layer): Linear(in_features=128, out_features=256, bias=True)
          )
          (1): LinearDLRM(
            (linear_layer): Linear(in_features=256, out_features=256, bias=True)
          )
          (2): LinearDLRM(
            (linear_layer): Linear(in_features=512, out_features=256, bias=True)
          )
          (3): LinearDLRM(
            (linear_layer): Linear(in_features=1024, out_features=256, bias=True)
          )
          (4): Identity()
        )
        (2): ModuleList(
          (0): LinearDLRM(
            (linear_layer): Linear(in_features=128, out_features=512, bias=True)
          )
          (1): LinearDLRM(
            (linear_layer): Linear(in_features=256, out_features=512, bias=True)
          )
          (2): LinearDLRM(
            (linear_layer): Linear(in_features=512, out_features=512, bias=True)
          )
          (3): LinearDLRM(
            (linear_layer): Linear(in_features=1024, out_features=512, bias=True)
          )
          (4): Identity()
        )
        (3): ModuleList(
          (0): LinearDLRM(
            (linear_layer): Linear(in_features=128, out_features=1024, bias=True)
          )
          (1): LinearDLRM(
            (linear_layer): Linear(in_features=256, out_features=1024, bias=True)
          )
          (2): LinearDLRM(
            (linear_layer): Linear(in_features=512, out_features=1024, bias=True)
          )
          (3): LinearDLRM(
            (linear_layer): Linear(in_features=1024, out_features=1024, bias=True)
          )
          (4): Identity()
        )
      )
      (2): ModuleList(
        (0): ModuleList(
          (0): LinearDLRM(
            (linear_layer): Linear(in_features=128, out_features=128, bias=True)
          )
          (1): LinearDLRM(
            (linear_layer): Linear(in_features=256, out_features=128, bias=True)
          )
          (2): LinearDLRM(
            (linear_layer): Linear(in_features=512, out_features=128, bias=True)
          )
          (3): LinearDLRM(
            (linear_layer): Linear(in_features=1024, out_features=128, bias=True)
          )
          (4): Identity()
        )
        (1): ModuleList(
          (0): LinearDLRM(
            (linear_layer): Linear(in_features=128, out_features=256, bias=True)
          )
          (1): LinearDLRM(
            (linear_layer): Linear(in_features=256, out_features=256, bias=True)
          )
          (2): LinearDLRM(
            (linear_layer): Linear(in_features=512, out_features=256, bias=True)
          )
          (3): LinearDLRM(
            (linear_layer): Linear(in_features=1024, out_features=256, bias=True)
          )
          (4): Identity()
        )
        (2): ModuleList(
          (0): LinearDLRM(
            (linear_layer): Linear(in_features=128, out_features=512, bias=True)
          )
          (1): LinearDLRM(
            (linear_layer): Linear(in_features=256, out_features=512, bias=True)
          )
          (2): LinearDLRM(
            (linear_layer): Linear(in_features=512, out_features=512, bias=True)
          )
          (3): LinearDLRM(
            (linear_layer): Linear(in_features=1024, out_features=512, bias=True)
          )
          (4): Identity()
        )
        (3): ModuleList(
          (0): LinearDLRM(
            (linear_layer): Linear(in_features=128, out_features=1024, bias=True)
          )
          (1): LinearDLRM(
            (linear_layer): Linear(in_features=256, out_features=1024, bias=True)
          )
          (2): LinearDLRM(
            (linear_layer): Linear(in_features=512, out_features=1024, bias=True)
          )
          (3): LinearDLRM(
            (linear_layer): Linear(in_features=1024, out_features=1024, bias=True)
          )
          (4): Identity()
        )
      )
      (3): ModuleList(
        (0): ModuleList(
          (0): LinearDLRM(
            (linear_layer): Linear(in_features=128, out_features=128, bias=True)
          )
          (1): LinearDLRM(
            (linear_layer): Linear(in_features=256, out_features=128, bias=True)
          )
          (2): LinearDLRM(
            (linear_layer): Linear(in_features=512, out_features=128, bias=True)
          )
          (3): LinearDLRM(
            (linear_layer): Linear(in_features=1024, out_features=128, bias=True)
          )
          (4): Identity()
        )
        (1): ModuleList(
          (0): LinearDLRM(
            (linear_layer): Linear(in_features=128, out_features=256, bias=True)
          )
          (1): LinearDLRM(
            (linear_layer): Linear(in_features=256, out_features=256, bias=True)
          )
          (2): LinearDLRM(
            (linear_layer): Linear(in_features=512, out_features=256, bias=True)
          )
          (3): LinearDLRM(
            (linear_layer): Linear(in_features=1024, out_features=256, bias=True)
          )
          (4): Identity()
        )
        (2): ModuleList(
          (0): LinearDLRM(
            (linear_layer): Linear(in_features=128, out_features=512, bias=True)
          )
          (1): LinearDLRM(
            (linear_layer): Linear(in_features=256, out_features=512, bias=True)
          )
          (2): LinearDLRM(
            (linear_layer): Linear(in_features=512, out_features=512, bias=True)
          )
          (3): LinearDLRM(
            (linear_layer): Linear(in_features=1024, out_features=512, bias=True)
          )
          (4): Identity()
        )
        (3): ModuleList(
          (0): LinearDLRM(
            (linear_layer): Linear(in_features=128, out_features=1024, bias=True)
          )
          (1): LinearDLRM(
            (linear_layer): Linear(in_features=256, out_features=1024, bias=True)
          )
          (2): LinearDLRM(
            (linear_layer): Linear(in_features=512, out_features=1024, bias=True)
          )
          (3): LinearDLRM(
            (linear_layer): Linear(in_features=1024, out_features=1024, bias=True)
          )
          (4): Identity()
        )
      )
      (4): ModuleList(
        (0): ModuleList(
          (0): LinearDLRM(
            (linear_layer): Linear(in_features=128, out_features=1, bias=True)
          )
          (1): LinearDLRM(
            (linear_layer): Linear(in_features=256, out_features=1, bias=True)
          )
          (2): LinearDLRM(
            (linear_layer): Linear(in_features=512, out_features=1, bias=True)
          )
          (3): LinearDLRM(
            (linear_layer): Linear(in_features=1024, out_features=1, bias=True)
          )
        )
      )
    )
    (bn_layers): ModuleList()
    (theta_parameters): ParameterList(
        (0): Parameter containing: [torch.FloatTensor of size 1]
        (1): Parameter containing: [torch.FloatTensor of size 1]
        (2): Parameter containing: [torch.FloatTensor of size 1]
        (3): Parameter containing: [torch.FloatTensor of size 1]
…
